hw1/model.npy (npy, 1432 bytes, 1 tensors)

array f8 [163]
000000 29 cd 39 f4 43 82 91 bf d5 0b 96 10 cf 52 a7 bf
       -0.01709848573814302 -0.04555365636317502
000010 ef 96 72 4c b2 3f 94 bf 14 e1 37 6e e5 87 a8 3f
       -0.019774232784263764 0.04791180582464186
000020 aa e1 ba 86 76 25 99 3f df f0 d4 84 fe 27 a3 3f
       0.024556972478167495 0.03741450664026202
000030 68 c7 ee fa 86 fc 87 3f 0c 81 93 b1 d4 09 9f bf
       0.011712126286372374 -0.03031093915785825
000040 a9 98 e6 a4 2c 52 a5 bf c6 b8 51 e0 71 a9 a1 bf
       -0.04164256585072341 -0.03449588645240591
000050 34 a8 bc c7 c0 b4 9f bf 7c 63 a4 af d6 a3 b2 bf
       -0.030962955656981886 -0.07281247890604264
000060 2d 18 29 1b 26 8c b1 bf 49 0f 36 c9 e6 26 79 3f
       -0.06854475176905402 0.006140614993799983
000070 bd a8 e8 61 aa c1 8e bf be 88 4a 67 ec 1f 9c bf
       -0.015017825234356125 -0.0274655283016123
000080 ec bf cf af ef 13 9a bf 32 c6 ed 26 eb 00 96 3f
       -0.025466675859149676 0.021487879038835263
000090 47 bd ec 5e 5b b2 a0 bf 1a cd e3 9d 6b 3b c8 bf
       -0.03261075528859663 -0.18931336602654697
0000a0 b8 1d 7e d6 b0 06 d1 bf 32 8e 73 3d 35 f2 c4 bf
       -0.2660333723692605 -0.16364160061412886
0000b0 a2 e5 f7 d9 da 24 c4 bf 54 72 1c a6 12 68 c4 bf
       -0.15737472193704344 -0.15942605124372966
0000c0 f3 36 fe ff 87 02 c1 bf 33 90 d3 10 17 7d c1 3f
       -0.13288974761638137 0.13662994691469663
0000d0 bb 0f 71 0f 51 f3 ca 3f 64 c4 25 be 0e eb c4 3f
       0.2105504346274055 0.16342338833377135
0000e0 9c ee ea 0a d3 57 bc bf 5e 43 c8 07 c8 23 e1 bf
       -0.11071509377046101 -0.5356178428647629
0000f0 75 4f fc f9 42 b6 d6 bf 62 6c f4 21 f5 ed d7 bf
       -0.3548743668809416 -0.3738987762059819
000100 70 12 0a 13 39 bd b6 bf 00 cd 8c bd 93 1e c8 bf
       -0.08882481303050738 -0.1884331393754124
000110 1f bb 2c 59 35 04 ad 3f 81 3c ac 59 12 81 ce 3f
       0.05667273248251647 0.23831395510248757
000120 99 71 c1 86 36 fe dc 3f 5a a7 ae 23 0b ed bb bf
       0.4530159297917407 -0.10908574696682419
000130 50 e6 45 5d 59 6e a8 bf e6 55 20 9f 97 02 c6 3f
       -0.04771689666354162 0.17195410985793486
000140 ce f9 8f b6 cb a2 52 bf 19 a6 0d 8f f2 1c ac bf
       -0.0011374463449552621 -0.05490835186249061
000150 0a 7d ea 6b da 62 c4 3f db 65 4c 28 92 68 79 3f
       0.1592667605336618 0.006203242232709151
000160 d6 a9 51 5b ac b9 c5 bf 90 d6 e8 51 80 e8 af 3f
       -0.16972879847464978 0.06232071876403922
000170 3b 03 d5 34 3b 66 ae 3f b6 b6 c3 0f 3f 13 99 bf
       0.05937371272967203 -0.024487481438817148
000180 e8 b0 01 46 cf 4d a9 bf 0a f3 86 d2 48 e7 a2 bf
       -0.04942176560948203 -0.03692081041251612
000190 1f 7c 21 14 55 8f 89 bf 0b 02 fc bd 56 5e b9 bf
       -0.012480415989726322 -0.09909574640551726
0001a0 12 9f a6 dc 6b 03 bf 3f 9d e2 a5 c8 74 3a b8 3f
       0.12114595543846132 0.0946419706214194
0001b0 a5 8a 48 f3 7f 58 95 3f 9f 8f c2 92 92 13 80 3f
       0.020845412467802266 0.007849831680068862
0001c0 61 8e ba 69 50 eb 94 bf 36 d3 0c 02 14 ad 86 bf
       -0.02042890210453974 -0.0110723078847542
0001d0 f1 8f b3 51 bc a0 9e bf d2 c2 17 35 8c 78 87 bf
       -0.02991003273645271 -0.011460395212425398
0001e0 a7 d2 f8 67 64 84 c0 bf f3 e4 54 e5 6b 11 b7 3f
       -0.12904028965717382 0.09010958050648181
0001f0 c6 23 98 54 e2 b0 a6 3f 78 28 d1 d1 d1 24 9c 3f
       0.044318268610431796 0.027484205657210187
000200 13 6e 54 ef 9d 54 a4 bf 21 84 f4 fe 45 8b a0 3f
       -0.03970807596689609 0.03231257188077331
000210 f5 7c a2 6b 22 62 a8 3f 5b ca a8 f3 ff 39 b4 bf
       0.047623706473354156 -0.07901000689234065
000220 a5 08 ef 60 2b 7c 9f bf bf 82 80 86 7c 69 b2 bf
       -0.03074710635315427 -0.07192209514370072
000230 ff b3 10 63 5a 9d a9 3f e6 ab 65 b1 87 05 8a bf
       0.0500286336831337 -0.012705860234481347
000240 06 68 50 f9 df a9 b4 3f 82 b3 3c 2c 83 e1 ab 3f
       0.08071708523530682 0.05445489802364191
000250 40 1c 74 a8 11 7a 6b bf e6 a5 52 d4 7c 84 98 bf
       -0.003354105461429252 -0.02394290014186664
000260 a2 ed 9c 2b 7c ac 96 3f f9 ca 00 36 a9 5e a1 bf
       0.02214235321228631 -0.03392533096520895
000270 f4 91 3f 1e 1f ee 91 3f 1c 75 ea f8 7d a6 92 bf
       0.01750992414589976 -0.01821324188005234
000280 4e 20 ab 29 de 03 b1 3f 3c b7 e7 2b 3d 54 b4 3f
       0.06646526830002239 0.07941038438704323
000290 2b 6e 18 9b 93 82 be bf 2c b7 5a f9 38 a1 ab 3f
       -0.11917994057187602 0.053964405478252736
0002a0 7a 0b fb 34 55 1b b6 bf 08 d4 95 2f fa 63 b0 3f
       -0.08635456603501082 0.0640255323576896
0002b0 e1 ce fa d4 ca 2d d1 3f d8 a5 da d7 8b 3b a1 bf
       0.26841994093704896 -0.03365742692887935
0002c0 ce 66 33 b7 5c a0 31 3f 53 22 90 cf e3 33 b5 bf
       0.0002689577442659242 -0.08282302682358393
0002d0 3b 3c 88 62 7f 43 e5 3f c6 f6 40 b0 55 0d b3 bf
       0.6644894527870585 -0.07442222168989607
0002e0 03 d7 f7 80 fa a8 71 bf 14 57 7e ab 93 9c a6 bf
       -0.004311541109464081 -0.04416333645273887
0002f0 6c b5 a2 4b 10 8a 5f 3f 3e c8 a3 6c 50 c5 a5 3f
       0.0019250067839878494 0.04252101255578154
000300 dd 70 01 d5 4f 54 a7 bf 79 47 0f 2c da 24 ba bf
       -0.04556512332121241 -0.1021248204772557
000310 d5 50 4c f8 26 0e 91 bf 24 cc 69 52 76 e3 83 3f
       -0.016655548958696215 0.009711193456700747
000320 72 94 68 07 c2 1f 85 3f 24 e1 f3 e3 83 9c 5d bf
       0.010314479685869158 -0.001807335662134043
000330 42 e4 98 ca c1 f6 82 3f d1 a5 bb 1a 13 a5 66 bf
       0.0092597141220826 -0.002764260590869518
000340 0f 98 f6 14 21 d3 84 bf 13 5c 7a 8f 85 0a 62 bf
       -0.010168322040794235 -0.0022022827723264886
000350 7f 2f 1f 46 49 93 70 3f c0 70 fd 57 33 a7 81 bf
       0.004046713091110265 -0.008619691012136221
000360 3c 6a 30 bf ad 7f 85 3f aa d3 f7 ea e8 54 7e bf
       0.010497434041146218 -0.007405195079162855
000370 ed b1 64 48 61 61 a3 3f 59 7a ed 7e 51 d0 a4 bf
       0.03785232552249682 -0.04065184282693641
000380 eb 89 60 00 e1 2d 9c bf 5b bf ee c4 84 9a 92 3f
       -0.02751876416017211 0.01816756679517027
000390 bc 03 6e 28 20 28 ae bf be 25 c8 98 5f 6e d1 bf
       -0.05889988416220812 -0.2723616592416781
0003a0 77 87 5d 91 09 69 9a bf 4c aa 95 09 af fd b8 3f
       -0.02579131078471827 0.09762090667724371
0003b0 20 4a ea c0 96 b4 ad bf d9 20 c9 c7 09 31 c2 bf
       -0.0580184088222675 -0.1421215272441774
0003c0 ee 48 1f 1b f3 de b5 bf d8 87 11 91 59 bd ab bf
       -0.08543319141543623 -0.05417899986129243
0003d0 e8 13 de a4 88 a8 9e bf 41 97 d1 10 2f 5b a2 bf
       -0.02993978029509839 -0.035851927569452
0003e0 ee c5 24 6a b4 24 a6 bf 59 57 2a b7 3c c2 da 3f
       -0.0432487849779014 0.41810529601331364
0003f0 e6 5c 70 45 ec 37 d9 3f 5c 04 2b 17 b9 d9 76 3f
       0.3940382650484494 0.005578730592504657
000400 26 81 25 c1 84 d5 81 bf df 74 42 3e e4 db 72 3f
       -0.008708035606730901 0.0046042361974773785
000410 f0 35 79 fe f0 e6 6a 3f 2f 78 23 1c 25 4d 6c 3f
       0.0032839495577607833 0.0034547543337870783
000420 20 e3 03 dc 83 9f 6d 3f 8e 9a 23 92 c3 c4 6b 3f
       0.0036161017779900023 0.003389722799613643
000430 22 a1 73 db 02 88 72 bf cb 58 d2 76 26 bc 20 bf
       -0.004524241601054054 -0.0001276776269249546
000440 9f ff 99 18 87 05 76 3f c3 9b 9e e6 43 db 64 3f
       0.0053763653937720915 0.0025459600628496572
000450 a5 65 61 04 bf d9 80 bf 9a 21 ea 2b ae 26 71 bf
       -0.00822781784170241 -0.004187279088576546
000460 ee 93 52 5a d3 dc 77 bf ee 33 01 a8 47 22 36 bf
       -0.005825830075228728 -0.000337736601072446
000470 45 91 4c 0f f7 41 62 3f 94 e3 ad 75 0f fa 46 3f
       0.0022287202249506055 0.0007011962401143206
000480 fc 46 8c a9 9a 58 4c 3f 61 11 a1 22 88 a4 c8 3f
       0.0008650546252246534 0.19252111140134345
000490 fe 76 71 8b 86 05 a1 bf f6 9a 7c 58 ac 9e b6 bf
       -0.03324528171718376 -0.08835866127320088
0004a0 75 6b f2 7e 37 e4 92 bf df 31 c4 a5 a9 7c b1 bf
       -0.018448702929713307 -0.06830845162421138
0004b0 6b b3 34 de f2 42 c2 3f 9b c0 a0 bc 90 1c d2 bf
       0.14266811227698936 -0.28299349232384835
0004c0 99 ee ac 7c 91 f8 bd bf 3f 80 84 17 c6 67 fe be
       -0.117074101389273 -2.899681700896405e-05
0004d0 ba 24 c5 f4 eb 73 8e bf a6 d2 57 6f 83 ac a2 bf
       -0.014869540602960963 -0.03647242292564572
0004e0 5c 18 0c 3b b7 a0 bc 3f 84 0c 6d a9 c9 2b b5 3f
       0.11182732764800235 0.08269939791084552
0004f0 a1 53 a2 2a 34 51 c6 3f 00 11 be 32 0c 1c a1 3f
       0.1743531425642262 0.03341711158194194
000500 e7 2e 07 37 db 0c a2 bf 6f e4 1a e0 1d ee c4 3f
       -0.03525433584908715 0.16351674502019217
000510 12 07 c1 78 ea e5 ad bf
       -0.05839474414871239
